…
    DECAY_EPOCHS: 30
    DECAY_RATE: 0.1
    NAME: cosine
  MIN_LR: 1.0e-05
  OPTIMIZER:
    BETAS:
    - 0.9
    - 0.999
    EPS: 1.0e-08
    MOMENTUM: 0.9
    NAME: adamw
  START_EPOCH: 0
  USE_CHECKPOINT: false
  WARMUP_EPOCHS: 20
  WARMUP_LR: 1.0e-06
  WEIGHT_DECAY: 0.05

[2021-06-24 16:08:23 shuffle_vit_tiny_patch4_window7_224_local7midV2] (main.py 79): INFO Creating model:shuffle/shuffle_vit_tiny_patch4_window7_224_local7midV2
[2021-06-24 16:08:23 shuffle_vit_tiny_patch4_window7_224_local7midV2] (main.py 82): INFO ShuffleTransformer(
  (to_token): PatchEmbedding(
    (conv1): Sequential(
      (0): Conv2d(3, 32, kernel_size=(3, 3), stride=(2, 2), padding=(1, 1))
      (1): BatchNorm2d(32, eps=1e-05, momentum=0.1, affine=True, track_running_stats=True)
      (2): ReLU6(inplace=True)
    )
    (conv2): Sequential(
      (0): Conv2d(32, 96, kernel_size=(3, 3), stride=(2, 2), padding=(1, 1))
      (1): BatchNorm2d(96, eps=1e-05, momentum=0.1, affine=True, track_running_stats=True)
      (2): ReLU6(inplace=True)
    )
    (conv3): Conv2d(96, 96, kernel_size=(1, 1), stride=(1, 1))
  )
  (stage1): StageModule(
    (layers): ModuleList(
      (0): ModuleList(
        (0): Block(
          (norm1): BatchNorm2d(96, eps=1e-05, momentum=0.1, affine=True, track_running_stats=True)
          (attn): Attention(
            (to_qkv): Conv2d(96, 288, kernel_size=(1, 1), stride=(1, 1), bias=False)
            (attn_drop): Dropout(p=0.0, inplace=False)
            (proj): Conv2d(96, 96, kernel_size=(1, 1), stride=(1, 1))
            (proj_drop): Dropout(p=0.0, inplace=False)
          )
          (local): Conv2d(96, 96, kernel_size=(7, 7), stride=(1, 1), padding=(3, 3), groups=96)
          (drop_path): Identity()
          (norm2): BatchNorm2d(96, eps=1e-05, momentum=0.1, affine=True, track_running_stats=True)
          (mlp): Mlp(
            (fc1): Conv2d(96, 384, kernel_size=(1, 1), stride=(1, 1))
            (act): ReLU6()
            (fc2): Conv2d(384, 96, kernel_size=(1, 1), stride=(1, 1))
            (drop): Dropout(p=0.0, inplace=True)
          )
          (norm3): BatchNorm2d(96, eps=1e-05, momentum=0.1, affine=True, track_running_stats=True)
        )
        (1): Block(
          (norm1): BatchNorm2d(96, eps=1e-05, momentum=0.1, affine=True, track_running_stats=True)
          (attn): Attention(
            (to_qkv): Conv2d(96, 288, kernel_size=(1, 1), stride=(1, 1), bias=False)
            (attn_drop): Dropout(p=0.0, inplace=False)
            (proj): Conv2d(96, 96, kernel_size=(1, 1), stride=(1, 1))
            (proj_drop): Dropout(p=0.0, inplace=False)
          )
          (local): Conv2d(96, 96, kernel_size=(7, 7), stride=(1, 1), padding=(3, 3), groups=96)
          (drop_path): Identity()
          (norm2): BatchNorm2d(96, eps=1e-05, momentum=0.1, affine=True, track_running_stats=True)
          (mlp): Mlp(
            (fc1): Conv2d(96, 384, kernel_size=(1, 1), stride=(1, 1))
            (act): ReLU6()
            (fc2): Conv2d(384, 96, kernel_size=(1, 1), stride=(1, 1))
            (drop): Dropout(p=0.0, inplace=True)
          )
          (norm3): BatchNorm2d(96, eps=1e-05, momentum=0.1, affine=True, track_running_stats=True)
        )
      )
    )
  )
  (stage2): StageModule(
    (patch_partition): PatchMerging(
      input dim=96, out dim=192
      (norm): BatchNorm2d(96, eps=1e-05, momentum=0.1, affine=True, track_running_stats=True)
      (reduction): Conv2d(96, 192, kernel_size=(2, 2), stride=(2, 2), bias=False)
    )
    (layers): ModuleList(
      (0): ModuleList(
        (0): Block(
          (norm1): BatchNorm2d(192, eps=1e-05, momentum=0.1, affine=True, track_running_stats=True)
          (attn): Attention(
            (to_qkv): Conv2d(192, 576, kernel_size=(1, 1), stride=(1, 1), bias=False)
            (attn_drop): Dropout(p=0.0, inplace=False)
            (proj): Conv2d(192, 192, kernel_size=(1, 1), stride=(1, 1))
            (proj_drop): Dropout(p=0.0, inplace=False)
          )
          (local): Conv2d(192, 192, kernel_size=(7, 7), stride=(1, 1), padding=(3, 3), groups=192)
          (drop_path): DropPath()
          (norm2): BatchNorm2d(192, eps=1e-05, momentum=0.1, affine=True, track_running_stats=True)
          (mlp): Mlp(
            (fc1): Conv2d(192, 768, kernel_size=(1, 1), stride=(1, 1))
            (act): ReLU6()
            (fc2): Conv2d(768, 192, kernel_size=(1, 1), stride=(1, 1))
            (drop): Dropout(p=0.0, inplace=True)
          )
          (norm3): BatchNorm2d(192, eps=1e-05, momentum=0.1, affine=True, track_running_stats=True)
        )
        (1): Block(
          (norm1): BatchNorm2d(192, eps=1e-05, momentum=0.1, affine=True, track_running_stats=True)
          (attn): Attention(
            (to_qkv): Conv2d(192, 576, kernel_size=(1, 1), stride=(1, 1), bias=False)
            (attn_drop): Dropout(p=0.0, inplace=False)
            (proj): Conv2d(192, 192, kernel_size=(1, 1), stride=(1, 1))
            (proj_drop): Dropout(p=0.0, inplace=False)
          )
          (local): Conv2d(192, 192, kernel_size=(7, 7), stride=(1, 1), padding=(3, 3), groups=192)
          (drop_path): DropPath()
          (norm2): BatchNorm2d(192, eps=1e-05, momentum=0.1, affine=True, track_running_stats=True)
          (mlp): Mlp(
            (fc1): Conv2d(192, 768, kernel_size=(1, 1), stride=(1, 1))
            (act): ReLU6()
            (fc2): Conv2d(768, 192, kernel_size=(1, 1), stride=(1, 1))
            (drop): Dropout(p=0.0, inplace=True)
          )
          (norm3): BatchNorm2d(192, eps=1e-05, momentum=0.1, affine=True, track_running_stats=True)
        )
      )
    )
  )
  (stage3): StageModule(
    (patch_partition): PatchMerging(
      input dim=192, out dim=384
      (norm): BatchNorm2d(192, eps=1e-05, momentum=0.1, affine=True, track_running_stats=True)
      (reduction): Conv2d(192, 384, kernel_size=(2, 2), stride=(2, 2), bias=False)
    )
    (layers): ModuleList(
      (0): ModuleList(
        (0): Block(
          (norm1): BatchNorm2d(384, eps=1e-05, momentum=0.1, affine=True, track_running_stats=True)
          (attn): Attention(
            (to_qkv): Conv2d(384, 1152, kernel_size=(1, 1), stride=(1, 1), bias=False)
            (attn_drop): Dropout(p=0.0, inplace=False)
            (proj): Conv2d(384, 384, kernel_size=(1, 1), stride=(1, 1))
            (proj_drop): Dropout(p=0.0, inplace=False)
          )
          (local): Conv2d(384, 384, kernel_size=(7, 7), stride=(1, 1), padding=(3, 3), groups=384)
          (drop_path): DropPath()
          (norm2): BatchNorm2d(384, eps=1e-05, momentum=0.1, affine=True, track_running_stats=True)
          (mlp): Mlp(
            (fc1): Conv2d(384, 1536, kernel_size=(1, 1), stride=(1, 1))
            (act): ReLU6()
            (fc2): Conv2d(1536, 384, kernel_size=(1, 1), stride=(1, 1))
            (drop): Dropout(p=0.0, inplace=True)
          )
          (norm3): BatchNorm2d(384, eps=1e-05, momentum=0.1, affine=True, track_running_stats=True)
        )
        (1): Block(
          (norm1): BatchNorm2d(384, eps=1e-05, momentum=0.1, affine=True, track_running_stats=True)
          (attn): Attention(
            (to_qkv): Conv2d(384, 1152, kernel_size=(1, 1), stride=(1, 1), bias=False)
            (attn_drop): Dropout(p=0.0, inplace=False)
            (proj): Conv2d(384, 384, kernel_size=(1, 1), stride=(1, 1))
            (proj_drop): Dropout(p=0.0, inplace=False)
          )
          (local): Conv2d(384, 384, kernel_size=(7, 7), stride=(1, 1), padding=(3, 3), groups=384)
          (drop_path): DropPath()
          (norm2): BatchNorm2d(384, eps=1e-05, momentum=0.1, affine=True, track_running_stats=True)
          (mlp): Mlp(
            (fc1): Conv2d(384, 1536, kernel_size=(1, 1), stride=(1, 1))
            (act): ReLU6()
            (fc2): Conv2d(1536, 384, kernel_size=(1, 1), stride=(1, 1))
            (drop): Dropout(p=0.0, inplace=True)
          )
          (norm3): BatchNorm2d(384, eps=1e-05, momentum=0.1, affine=True, track_running_stats=True)
        )
      )
      (1): ModuleList(
        (0): Block(
          (norm1): BatchNorm2d(384, eps=1e-05, momentum=0.1, affine=True, track_running_stats=True)
          (attn): Attention(
            (to_qkv): Conv2d(384, 1152, kernel_size=(1, 1), stride=(1, 1), bias=False)
            (attn_drop): Dropout(p=0.0, inplace=False)
            (proj): Conv2d(384, 384, kernel_size=(1, 1), stride=(1, 1))
            (proj_drop): Dropout(p=0.0, inplace=False)
          )
          (local): Conv2d(384, 384, kernel_size=(7, 7), stride=(1, 1), padding=(3, 3), groups=384)
          (drop_path): DropPath()
          (norm2): BatchNorm2d(384, eps=1e-05, momentum=0.1, affine=True, track_running_stats=True)
          (mlp): Mlp(
            (fc1): Conv2d(384, 1536, kernel_size=(1, 1), stride=(1, 1))
            (act): ReLU6()
            (fc2): Conv2d(1536, 384, kernel_size=(1, 1), stride=(1, 1))
            (drop): Dropout(p=0.0, inplace=True)
          )
          (norm3): BatchNorm2d(384, eps=1e-05, momentum=0.1, affine=True, track_running_stats=True)
        )
        (1): Block(
          (norm1): BatchNorm2d(384, eps=1e-05, momentum=0.1, affine=True, track_running_stats=True)
          (attn): Attention(
            (to_qkv): Conv2d(384, 1152, kernel_size=(1, 1), stride=(1, 1), bias=False)
            (attn_drop): Dropout(p=0.0, inplace=False)
            (proj): Conv2d(384, 384, kernel_size=(1, 1), stride=(1, 1))
            (proj_drop): Dropout(p=0.0, inplace=False)
          )
          (local): Conv2d(384, 384, kernel_size=(7, 7), stride=(1, 1), padding=(3, 3), groups=384)
          (drop_path): DropPath()
          (norm2): BatchNorm2d(384, eps=1e-05, momentum=0.1, affine=True, track_running_stats=True)
          (mlp): Mlp(
            (fc1): Conv2d(384, 1536, kernel_size=(1, 1), stride=(1, 1))
            (act): ReLU6()
            (fc2): Conv2d(1536, 384, kernel_size=(1, 1), stride=(1, 1))
            (drop): Dropout(p=0.0, inplace=True)
          )
          (norm3): BatchNorm2d(384, eps=1e-05, momentum=0.1, affine=True, track_running_stats=True)
        )
      )
      (2): ModuleList(
        (0): Block(
          (norm1): BatchNorm2d(384, eps=1e-05, momentum=0.1, affine=True, track_running_stats=True)
          (attn): Attention(
            (to_qkv): Conv2d(384, 1152, kernel_size=(1, 1), stride=(1, 1), bias=False)
            (attn_drop): Dropout(p=0.0, inplace=False)
            (proj): Conv2d(384, 384, kernel_size=(1, 1), stride=(1, 1))
            (proj_drop): Dropout(p=0.0, inplace=False)
          )
          (local): Conv2d(384, 384, kernel_size=(7, 7), stride=(1, 1), padding=(3, 3), groups=384)
          (drop_path): DropPath()
          (norm2): BatchNorm2d(384, eps=1e-05, momentum=0.1, affine=True, track_running_stats=True)
          (mlp): Mlp(
            (fc1): Conv2d(384, 1536, kernel_size=(1, 1), stride=(1, 1))
            (act): ReLU6()
            (fc2): Conv2d(1536, 384, kernel_size=(1, 1), stride=(1, 1))
            (drop): Dropout(p=0.0, inplace=True)
          )
          (norm3): BatchNorm2d(384, eps=1e-05, momentum=0.1, affine=True, track_running_stats=True)
        )
        (1): Block(
          (norm1): BatchNorm2d(384, eps=1e-05, momentum=0.1, affine=True, track_running_stats=True)
          (attn): Attention(
            (to_qkv): Conv2d(384, 1152, kernel_size=(1, 1), stride=(1, 1), bias=False)
            (attn_drop): Dropout(p=0.0, inplace=False)
            (proj): Conv2d(384, 384, kernel_size=(1, 1), stride=(1, 1))
            (proj_drop): Dropout(p=0.0, inplace=False)
          )
          (local): Conv2d(384, 384, kernel_size=(7, 7), stride=(1, 1), padding=(3, 3), groups=384)
          (drop_path): DropPath()
          (norm2): BatchNorm2d(384, eps=1e-05, momentum=0.1, affine=True, track_running_stats=True)
          (mlp): Mlp(
            (fc1): Conv2d(384, 1536, kernel_size=(1, 1), stride=(1, 1))
            (act): ReLU6()
            (fc2): Conv2d(1536, 384, kernel_size=(1, 1), stride=(1, 1))
            (drop): Dropout(p=0.0, inplace=True)
          )
          (norm3): BatchNorm2d(384, eps=1e-05, momentum=0.1, affine=True, track_running_stats=True)
        )
      )
    )
  )
  (stage4): StageModule(
    (patch_partition): PatchMerging(
      input dim=384, out dim=768
      (norm): BatchNorm2d(384, eps=1e-05, momentum=0.1, affine=True, track_running_stats=True)
      (reduction): Conv2d(384, 768, kernel_size=(2, 2), stride=(2, 2), bias=False)
    )
    (layers): ModuleList(
      (0): ModuleList(
        (0): Block(
          (norm1): BatchNorm2d(768, eps=1e-05, momentum=0.1, affine=True, track_running_stats=True)
          (attn): Attention(
            (to_qkv): Conv2d(768, 2304, kernel_size=(1, 1), stride=(1, 1), bias=False)
            (attn_drop): Dropout(p=0.0, inplace=False)
            (proj): Conv2d(768, 768, kernel_size=(1, 1), stride=(1, 1))
            (proj_drop): Dropout(p=0.0, inplace=False)
          )
          (local): Conv2d(768, 768, kernel_size=(7, 7), stride=(1, 1), padding=(3, 3), groups=768)
          (drop_path): DropPath()
          (norm2): BatchNorm2d(768, eps=1e-05, momentum=0.1, affine=True, track_running_stats=True)
          (mlp): Mlp(
            (fc1): Conv2d(768, 3072, kernel_size=(1, 1), stride=(1, 1))
            (act): ReLU6()
            (fc2): Conv2d(3072, 768, kernel_size=(1, 1), stride=(1, 1))
            (drop): Dropout(p=0.0, inplace=True)
          )
          (norm3): BatchNorm2d(768, eps=1e-05, momentum=0.1, affine=True, track_running_stats=True)
        )
        (1): Block(
          (norm1): BatchNorm2d(768, eps=1e-05, momentum=0.1, affine=True, track_running_stats=True)
          (attn): Attention(
            (to_qkv): Conv2d(768, 2304, kernel_size=(1, 1), stride=(1, 1), bias=False)
            (attn_drop): Dropout(p=0.0, inplace=False)
            (proj): Conv2d(768, 768, kernel_size=(1, 1), stride=(1, 1))
            (proj_drop): Dropout(p=0.0, inplace=False)
          )
          (local): Conv2d(768, 768, kernel_size=(7, 7), stride=(1, 1), padding=(3, 3), groups=768)
          (drop_path): DropPath()
          (norm2): BatchNorm2d(768, eps=1e-05, momentum=0.1, affine=True, track_running_stats=True)
          (mlp): Mlp(
            (fc1): Conv2d(768, 3072, kernel_size=(1, 1), stride=(1, 1))
            (act): ReLU6()
            (fc2): Conv2d(3072, 768, kernel_size=(1, 1), stride=(1, 1))
            (drop): Dropout(p=0.0, inplace=True)
          )
          (norm3): BatchNorm2d(768, eps=1e-05, momentum=0.1, affine=True, track_running_stats=True)
        )
      )
    )
  )
  (avgpool): AdaptiveAvgPool2d(output_size=(1, 1))
  (head): Linear(in_features=768, out_features=1000, bias=True)
)
[2021-06-24 16:08:23 shuffle_vit_tiny_patch4_window7_224_local7midV2] (main.py 91): INFO number of params: 28532482
[2021-06-24 16:08:23 shuffle_vit_tiny_patch4_window7_224_local7midV2] (main.py 118): INFO no checkpoint found in output/shuffle_vit_tiny_patch4_window7_224_local7midV2/default, ignoring auto resume
[2021-06-24 16:08:23 shuffle_vit_tiny_patch4_window7_224_local7midV2] (main.py 131): INFO Start training
…
