…
    DECAY_EPOCHS: 30
    DECAY_RATE: 0.1
    NAME: cosine
  MIN_LR: 1.0e-05
  OPTIMIZER:
    BETAS:
    - 0.9
    - 0.999
    EPS: 1.0e-08
    MOMENTUM: 0.9
    NAME: adamw
  START_EPOCH: 0
  USE_CHECKPOINT: false
  WARMUP_EPOCHS: 20
  WARMUP_LR: 1.0e-06
  WEIGHT_DECAY: 0.05

[2021-06-24 16:15:27 shuffle_vit_base_patch4_window7_224_local7midV2] (main.py 79): INFO Creating model:shuffle/shuffle_vit_base_patch4_window7_224_local7midV2
[2021-06-24 16:15:28 shuffle_vit_base_patch4_window7_224_local7midV2] (main.py 82): INFO ShuffleTransformer(
  (to_token): PatchEmbedding(
    (conv1): Sequential(
      (0): Conv2d(3, 32, kernel_size=(3, 3), stride=(2, 2), padding=(1, 1))
      (1): BatchNorm2d(32, eps=1e-05, momentum=0.1, affine=True, track_running_stats=True)
      (2): ReLU6(inplace=True)
    )
    (conv2): Sequential(
      (0): Conv2d(32, 128, kernel_size=(3, 3), stride=(2, 2), padding=(1, 1))
      (1): BatchNorm2d(128, eps=1e-05, momentum=0.1, affine=True, track_running_stats=True)
      (2): ReLU6(inplace=True)
    )
    (conv3): Conv2d(128, 128, kernel_size=(1, 1), stride=(1, 1))
  )
  (stage1): StageModule(
    (layers): ModuleList(
      (0): ModuleList(
        (0): Block(
          (norm1): BatchNorm2d(128, eps=1e-05, momentum=0.1, affine=True, track_running_stats=True)
          (attn): Attention(
            (to_qkv): Conv2d(128, 384, kernel_size=(1, 1), stride=(1, 1), bias=False)
            (attn_drop): Dropout(p=0.0, inplace=False)
            (proj): Conv2d(128, 128, kernel_size=(1, 1), stride=(1, 1))
            (proj_drop): Dropout(p=0.0, inplace=False)
          )
          (local): Conv2d(128, 128, kernel_size=(7, 7), stride=(1, 1), padding=(3, 3), groups=128)
          (drop_path): Identity()
          (norm2): BatchNorm2d(128, eps=1e-05, momentum=0.1, affine=True, track_running_stats=True)
          (mlp): Mlp(
            (fc1): Conv2d(128, 512, kernel_size=(1, 1), stride=(1, 1))
            (act): ReLU6()
            (fc2): Conv2d(512, 128, kernel_size=(1, 1), stride=(1, 1))
            (drop): Dropout(p=0.0, inplace=True)
          )
          (norm3): BatchNorm2d(128, eps=1e-05, momentum=0.1, affine=True, track_running_stats=True)
        )
        (1): Block(
          (norm1): BatchNorm2d(128, eps=1e-05, momentum=0.1, affine=True, track_running_stats=True)
          (attn): Attention(
            (to_qkv): Conv2d(128, 384, kernel_size=(1, 1), stride=(1, 1), bias=False)
            (attn_drop): Dropout(p=0.0, inplace=False)
            (proj): Conv2d(128, 128, kernel_size=(1, 1), stride=(1, 1))
            (proj_drop): Dropout(p=0.0, inplace=False)
          )
          (local): Conv2d(128, 128, kernel_size=(7, 7), stride=(1, 1), padding=(3, 3), groups=128)
          (drop_path): Identity()
          (norm2): BatchNorm2d(128, eps=1e-05, momentum=0.1, affine=True, track_running_stats=True)
          (mlp): Mlp(
            (fc1): Conv2d(128, 512, kernel_size=(1, 1), stride=(1, 1))
            (act): ReLU6()
            (fc2): Conv2d(512, 128, kernel_size=(1, 1), stride=(1, 1))
            (drop): Dropout(p=0.0, inplace=True)
          )
          (norm3): BatchNorm2d(128, eps=1e-05, momentum=0.1, affine=True, track_running_stats=True)
        )
      )
    )
  )
  (stage2): StageModule(
    (patch_partition): PatchMerging(
      input dim=128, out dim=256
      (norm): BatchNorm2d(128, eps=1e-05, momentum=0.1, affine=True, track_running_stats=True)
      (reduction): Conv2d(128, 256, kernel_size=(2, 2), stride=(2, 2), bias=False)
    )
    (layers): ModuleList(
      (0): ModuleList(
        (0): Block(
          (norm1): BatchNorm2d(256, eps=1e-05, momentum=0.1, affine=True, track_running_stats=True)
          (attn): Attention(
            (to_qkv): Conv2d(256, 768, kernel_size=(1, 1), stride=(1, 1), bias=False)
            (attn_drop): Dropout(p=0.0, inplace=False)
            (proj): Conv2d(256, 256, kernel_size=(1, 1), stride=(1, 1))
            (proj_drop): Dropout(p=0.0, inplace=False)
          )
          (local): Conv2d(256, 256, kernel_size=(7, 7), stride=(1, 1), padding=(3, 3), groups=256)
          (drop_path): DropPath()
          (norm2): BatchNorm2d(256, eps=1e-05, momentum=0.1, affine=True, track_running_stats=True)
          (mlp): Mlp(
            (fc1): Conv2d(256, 1024, kernel_size=(1, 1), stride=(1, 1))
            (act): ReLU6()
            (fc2): Conv2d(1024, 256, kernel_size=(1, 1), stride=(1, 1))
            (drop): Dropout(p=0.0, inplace=True)
          )
          (norm3): BatchNorm2d(256, eps=1e-05, momentum=0.1, affine=True, track_running_stats=True)
        )
        (1): Block(
          (norm1): BatchNorm2d(256, eps=1e-05, momentum=0.1, affine=True, track_running_stats=True)
          (attn): Attention(
            (to_qkv): Conv2d(256, 768, kernel_size=(1, 1), stride=(1, 1), bias=False)
            (attn_drop): Dropout(p=0.0, inplace=False)
            (proj): Conv2d(256, 256, kernel_size=(1, 1), stride=(1, 1))
            (proj_drop): Dropout(p=0.0, inplace=False)
          )
          (local): Conv2d(256, 256, kernel_size=(7, 7), stride=(1, 1), padding=(3, 3), groups=256)
          (drop_path): DropPath()
          (norm2): BatchNorm2d(256, eps=1e-05, momentum=0.1, affine=True, track_running_stats=True)
          (mlp): Mlp(
            (fc1): Conv2d(256, 1024, kernel_size=(1, 1), stride=(1, 1))
            (act): ReLU6()
            (fc2): Conv2d(1024, 256, kernel_size=(1, 1), stride=(1, 1))
            (drop): Dropout(p=0.0, inplace=True)
          )
          (norm3): BatchNorm2d(256, eps=1e-05, momentum=0.1, affine=True, track_running_stats=True)
        )
      )
    )
  )
  (stage3): StageModule(
    (patch_partition): PatchMerging(
      input dim=256, out dim=512
      (norm): BatchNorm2d(256, eps=1e-05, momentum=0.1, affine=True, track_running_stats=True)
      (reduction): Conv2d(256, 512, kernel_size=(2, 2), stride=(2, 2), bias=False)
    )
    (layers): ModuleList(
      (0): ModuleList(
        (0): Block(
          (norm1): BatchNorm2d(512, eps=1e-05, momentum=0.1, affine=True, track_running_stats=True)
          (attn): Attention(
            (to_qkv): Conv2d(512, 1536, kernel_size=(1, 1), stride=(1, 1), bias=False)
            (attn_drop): Dropout(p=0.0, inplace=False)
            (proj): Conv2d(512, 512, kernel_size=(1, 1), stride=(1, 1))
            (proj_drop): Dropout(p=0.0, inplace=False)
          )
          (local): Conv2d(512, 512, kernel_size=(7, 7), stride=(1, 1), padding=(3, 3), groups=512)
          (drop_path): DropPath()
          (norm2): BatchNorm2d(512, eps=1e-05, momentum=0.1, affine=True, track_running_stats=True)
          (mlp): Mlp(
            (fc1): Conv2d(512, 2048, kernel_size=(1, 1), stride=(1, 1))
            (act): ReLU6()
            (fc2): Conv2d(2048, 512, kernel_size=(1, 1), stride=(1, 1))
            (drop): Dropout(p=0.0, inplace=True)
          )
          (norm3): BatchNorm2d(512, eps=1e-05, momentum=0.1, affine=True, track_running_stats=True)
        )
        (1): Block(
          (norm1): BatchNorm2d(512, eps=1e-05, momentum=0.1, affine=True, track_running_stats=True)
          (attn): Attention(
            (to_qkv): Conv2d(512, 1536, kernel_size=(1, 1), stride=(1, 1), bias=False)
            (attn_drop): Dropout(p=0.0, inplace=False)
            (proj): Conv2d(512, 512, kernel_size=(1, 1), stride=(1, 1))
            (proj_drop): Dropout(p=0.0, inplace=False)
          )
          (local): Conv2d(512, 512, kernel_size=(7, 7), stride=(1, 1), padding=(3, 3), groups=512)
          (drop_path): DropPath()
          (norm2): BatchNorm2d(512, eps=1e-05, momentum=0.1, affine=True, track_running_stats=True)
          (mlp): Mlp(
            (fc1): Conv2d(512, 2048, kernel_size=(1, 1), stride=(1, 1))
            (act): ReLU6()
            (fc2): Conv2d(2048, 512, kernel_size=(1, 1), stride=(1, 1))
            (drop): Dropout(p=0.0, inplace=True)
          )
          (norm3): BatchNorm2d(512, eps=1e-05, momentum=0.1, affine=True, track_running_stats=True)
        )
      )
      (1): ModuleList(
        (0): Block(
          (norm1): BatchNorm2d(512, eps=1e-05, momentum=0.1, affine=True, track_running_stats=True)
          (attn): Attention(
            (to_qkv): Conv2d(512, 1536, kernel_size=(1, 1), stride=(1, 1), bias=False)
            (attn_drop): Dropout(p=0.0, inplace=False)
            (proj): Conv2d(512, 512, kernel_size=(1, 1), stride=(1, 1))
            (proj_drop): Dropout(p=0.0, inplace=False)
          )
          (local): Conv2d(512, 512, kernel_size=(7, 7), stride=(1, 1), padding=(3, 3), groups=512)
          (drop_path): DropPath()
          (norm2): BatchNorm2d(512, eps=1e-05, momentum=0.1, affine=True, track_running_stats=True)
          (mlp): Mlp(
            (fc1): Conv2d(512, 2048, kernel_size=(1, 1), stride=(1, 1))
            (act): ReLU6()
            (fc2): Conv2d(2048, 512, kernel_size=(1, 1), stride=(1, 1))
            (drop): Dropout(p=0.0, inplace=True)
          )
          (norm3): BatchNorm2d(512, eps=1e-05, momentum=0.1, affine=True, track_running_stats=True)
        )
        (1): Block(
          (norm1): BatchNorm2d(512, eps=1e-05, momentum=0.1, affine=True, track_running_stats=True)
          (attn): Attention(
            (to_qkv): Conv2d(512, 1536, kernel_size=(1, 1), stride=(1, 1), bias=False)
            (attn_drop): Dropout(p=0.0, inplace=False)
            (proj): Conv2d(512, 512, kernel_size=(1, 1), stride=(1, 1))
            (proj_drop): Dropout(p=0.0, inplace=False)
          )
          (local): Conv2d(512, 512, kernel_size=(7, 7), stride=(1, 1), padding=(3, 3), groups=512)
          (drop_path): DropPath()
          (norm2): BatchNorm2d(512, eps=1e-05, momentum=0.1, affine=True, track_running_stats=True)
          (mlp): Mlp(
            (fc1): Conv2d(512, 2048, kernel_size=(1, 1), stride=(1, 1))
            (act): ReLU6()
            (fc2): Conv2d(2048, 512, kernel_size=(1, 1), stride=(1, 1))
            (drop): Dropout(p=0.0, inplace=True)
          )
          (norm3): BatchNorm2d(512, eps=1e-05, momentum=0.1, affine=True, track_running_stats=True)
        )
      )
      (2): ModuleList(
        (0): Block(
          (norm1): BatchNorm2d(512, eps=1e-05, momentum=0.1, affine=True, track_running_stats=True)
          (attn): Attention(
            (to_qkv): Conv2d(512, 1536, kernel_size=(1, 1), stride=(1, 1), bias=False)
            (attn_drop): Dropout(p=0.0, inplace=False)
            (proj): Conv2d(512, 512, kernel_size=(1, 1), stride=(1, 1))
            (proj_drop): Dropout(p=0.0, inplace=False)
          )
          (local): Conv2d(512, 512, kernel_size=(7, 7), stride=(1, 1), padding=(3, 3), groups=512)
          (drop_path): DropPath()
          (norm2): BatchNorm2d(512, eps=1e-05, momentum=0.1, affine=True, track_running_stats=True)
          (mlp): Mlp(
            (fc1): Conv2d(512, 2048, kernel_size=(1, 1), stride=(1, 1))
            (act): ReLU6()
            (fc2): Conv2d(2048, 512, kernel_size=(1, 1), stride=(1, 1))
            (drop): Dropout(p=0.0, inplace=True)
          )
          (norm3): BatchNorm2d(512, eps=1e-05, momentum=0.1, affine=True, track_running_stats=True)
        )
        (1): Block(
          (norm1): BatchNorm2d(512, eps=1e-05, momentum=0.1, affine=True, track_running_stats=True)
          (attn): Attention(
            (to_qkv): Conv2d(512, 1536, kernel_size=(1, 1), stride=(1, 1), bias=False)
            (attn_drop): Dropout(p=0.0, inplace=False)
            (proj): Conv2d(512, 512, kernel_size=(1, 1), stride=(1, 1))
            (proj_drop): Dropout(p=0.0, inplace=False)
          )
          (local): Conv2d(512, 512, kernel_size=(7, 7), stride=(1, 1), padding=(3, 3), groups=512)
          (drop_path): DropPath()
          (norm2): BatchNorm2d(512, eps=1e-05, momentum=0.1, affine=True, track_running_stats=True)
          (mlp): Mlp(
            (fc1): Conv2d(512, 2048, kernel_size=(1, 1), stride=(1, 1))
            (act): ReLU6()
            (fc2): Conv2d(2048, 512, kernel_size=(1, 1), stride=(1, 1))
            (drop): Dropout(p=0.0, inplace=True)
          )
          (norm3): BatchNorm2d(512, eps=1e-05, momentum=0.1, affine=True, track_running_stats=True)
        )
      )
      (3): ModuleList(
        (0): Block(
          (norm1): BatchNorm2d(512, eps=1e-05, momentum=0.1, affine=True, track_running_stats=True)
          (attn): Attention(
            (to_qkv): Conv2d(512, 1536, kernel_size=(1, 1), stride=(1, 1), bias=False)
            (attn_drop): Dropout(p=0.0, inplace=False)
            (proj): Conv2d(512, 512, kernel_size=(1, 1), stride=(1, 1))
            (proj_drop): Dropout(p=0.0, inplace=False)
          )
          (local): Conv2d(512, 512, kernel_size=(7, 7), stride=(1, 1), padding=(3, 3), groups=512)
          (drop_path): DropPath()
          (norm2): BatchNorm2d(512, eps=1e-05, momentum=0.1, affine=True, track_running_stats=True)
          (mlp): Mlp(
            (fc1): Conv2d(512, 2048, kernel_size=(1, 1), stride=(1, 1))
            (act): ReLU6()
            (fc2): Conv2d(2048, 512, kernel_size=(1, 1), stride=(1, 1))
            (drop): Dropout(p=0.0, inplace=True)
          )
          (norm3): BatchNorm2d(512, eps=1e-05, momentum=0.1, affine=True, track_running_stats=True)
        )
        (1): Block(
          (norm1): BatchNorm2d(512, eps=1e-05, momentum=0.1, affine=True, track_running_stats=True)
          (attn): Attention(
            (to_qkv): Conv2d(512, 1536, kernel_size=(1, 1), stride=(1, 1), bias=False)
            (attn_drop): Dropout(p=0.0, inplace=False)
            (proj): Conv2d(512, 512, kernel_size=(1, 1), stride=(1, 1))
            (proj_drop): Dropout(p=0.0, inplace=False)
          )
          (local): Conv2d(512, 512, kernel_size=(7, 7), stride=(1, 1), padding=(3, 3), groups=512)
          (drop_path): DropPath()
          (norm2): BatchNorm2d(512, eps=1e-05, momentum=0.1, affine=True, track_running_stats=True)
          (mlp): Mlp(
            (fc1): Conv2d(512, 2048, kernel_size=(1, 1), stride=(1, 1))
            (act): ReLU6()
            (fc2): Conv2d(2048, 512, kernel_size=(1, 1), stride=(1, 1))
            (drop): Dropout(p=0.0, inplace=True)
          )
          (norm3): BatchNorm2d(512, eps=1e-05, momentum=0.1, affine=True, track_running_stats=True)
        )
      )
      (4): ModuleList(
        (0): Block(
          (norm1): BatchNorm2d(512, eps=1e-05, momentum=0.1, affine=True, track_running_stats=True)
          (attn): Attention(
            (to_qkv): Conv2d(512, 1536, kernel_size=(1, 1), stride=(1, 1), bias=False)
            (attn_drop): Dropout(p=0.0, inplace=False)
            (proj): Conv2d(512, 512, kernel_size=(1, 1), stride=(1, 1))
            (proj_drop): Dropout(p=0.0, inplace=False)
          )
          (local): Conv2d(512, 512, kernel_size=(7, 7), stride=(1, 1), padding=(3, 3), groups=512)
          (drop_path): DropPath()
          (norm2): BatchNorm2d(512, eps=1e-05, momentum=0.1, affine=True, track_running_stats=True)
          (mlp): Mlp(
            (fc1): Conv2d(512, 2048, kernel_size=(1, 1), stride=(1, 1))
            (act): ReLU6()
            (fc2): Conv2d(2048, 512, kernel_size=(1, 1), stride=(1, 1))
            (drop): Dropout(p=0.0, inplace=True)
          )
          (norm3): BatchNorm2d(512, eps=1e-05, momentum=0.1, affine=True, track_running_stats=True)
        )
        (1): Block(
          (norm1): BatchNorm2d(512, eps=1e-05, momentum=0.1, affine=True, track_running_stats=True)
          (attn): Attention(
            (to_qkv): Conv2d(512, 1536, kernel_size=(1, 1), stride=(1, 1), bias=False)
            (attn_drop): Dropout(p=0.0, inplace=False)
            (proj): Conv2d(512, 512, kernel_size=(1, 1), stride=(1, 1))
            (proj_drop): Dropout(p=0.0, inplace=False)
          )
          (local): Conv2d(512, 512, kernel_size=(7, 7), stride=(1, 1), padding=(3, 3), groups=512)
          (drop_path): DropPath()
          (norm2): BatchNorm2d(512, eps=1e-05, momentum=0.1, affine=True, track_running_stats=True)
          (mlp): Mlp(
            (fc1): Conv2d(512, 2048, kernel_size=(1, 1), stride=(1, 1))
            (act): ReLU6()
            (fc2): Conv2d(2048, 512, kernel_size=(1, 1), stride=(1, 1))
            (drop): Dropout(p=0.0, inplace=True)
          )
          (norm3): BatchNorm2d(512, eps=1e-05, momentum=0.1, affine=True, track_running_stats=True)
        )
      )
      (5): ModuleList(
        (0): Block(
          (norm1): BatchNorm2d(512, eps=1e-05, momentum=0.1, affine=True, track_running_stats=True)
          (attn): Attention(
            (to_qkv): Conv2d(512, 1536, kernel_size=(1, 1), stride=(1, 1), bias=False)
            (attn_drop): Dropout(p=0.0, inplace=False)
            (proj): Conv2d(512, 512, kernel_size=(1, 1), stride=(1, 1))
            (proj_drop): Dropout(p=0.0, inplace=False)
          )
          (local): Conv2d(512, 512, kernel_size=(7, 7), stride=(1, 1), padding=(3, 3), groups=512)
          (drop_path): DropPath()
          (norm2): BatchNorm2d(512, eps=1e-05, momentum=0.1, affine=True, track_running_stats=True)
          (mlp): Mlp(
            (fc1): Conv2d(512, 2048, kernel_size=(1, 1), stride=(1, 1))
            (act): ReLU6()
            (fc2): Conv2d(2048, 512, kernel_size=(1, 1), stride=(1, 1))
            (drop): Dropout(p=0.0, inplace=True)
          )
          (norm3): BatchNorm2d(512, eps=1e-05, momentum=0.1, affine=True, track_running_stats=True)
        )
        (1): Block(
          (norm1): BatchNorm2d(512, eps=1e-05, momentum=0.1, affine=True, track_running_stats=True)
          (attn): Attention(
            (to_qkv): Conv2d(512, 1536, kernel_size=(1, 1), stride=(1, 1), bias=False)
            (attn_drop): Dropout(p=0.0, inplace=False)
            (proj): Conv2d(512, 512, kernel_size=(1, 1), stride=(1, 1))
            (proj_drop): Dropout(p=0.0, inplace=False)
          )
          (local): Conv2d(512, 512, kernel_size=(7, 7), stride=(1, 1), padding=(3, 3), groups=512)
          (drop_path): DropPath()
          (norm2): BatchNorm2d(512, eps=1e-05, momentum=0.1, affine=True, track_running_stats=True)
          (mlp): Mlp(
            (fc1): Conv2d(512, 2048, kernel_size=(1, 1), stride=(1, 1))
            (act): ReLU6()
            (fc2): Conv2d(2048, 512, kernel_size=(1, 1), stride=(1, 1))
            (drop): Dropout(p=0.0, inplace=True)
          )
          (norm3): BatchNorm2d(512, eps=1e-05, momentum=0.1, affine=True, track_running_stats=True)
        )
      )
      (6): ModuleList(
        (0): Block(
          (norm1): BatchNorm2d(512, eps=1e-05, momentum=0.1, affine=True, track_running_stats=True)
          (attn): Attention(
            (to_qkv): Conv2d(512, 1536, kernel_size=(1, 1), stride=(1, 1), bias=False)
            (attn_drop): Dropout(p=0.0, inplace=False)
            (proj): Conv2d(512, 512, kernel_size=(1, 1), stride=(1, 1))
            (proj_drop): Dropout(p=0.0, inplace=False)
          )
          (local): Conv2d(512, 512, kernel_size=(7, 7), stride=(1, 1), padding=(3, 3), groups=512)
          (drop_path): DropPath()
          (norm2): BatchNorm2d(512, eps=1e-05, momentum=0.1, affine=True, track_running_stats=True)
          (mlp): Mlp(
            (fc1): Conv2d(512, 2048, kernel_size=(1, 1), stride=(1, 1))
            (act): ReLU6()
            (fc2): Conv2d(2048, 512, kernel_size=(1, 1), stride=(1, 1))
            (drop): Dropout(p=0.0, inplace=True)
          )
          (norm3): BatchNorm2d(512, eps=1e-05, momentum=0.1, affine=True, track_running_stats=True)
        )
        (1): Block(
          (norm1): BatchNorm2d(512, eps=1e-05, momentum=0.1, affine=True, track_running_stats=True)
          (attn): Attention(
            (to_qkv): Conv2d(512, 1536, kernel_size=(1, 1), stride=(1, 1), bias=False)
            (attn_drop): Dropout(p=0.0, inplace=False)
            (proj): Conv2d(512, 512, kernel_size=(1, 1), stride=(1, 1))
            (proj_drop): Dropout(p=0.0, inplace=False)
          )
          (local): Conv2d(512, 512, kernel_size=(7, 7), stride=(1, 1), padding=(3, 3), groups=512)
          (drop_path): DropPath()
          (norm2): BatchNorm2d(512, eps=1e-05, momentum=0.1, affine=True, track_running_stats=True)
          (mlp): Mlp(
            (fc1): Conv2d(512, 2048, kernel_size=(1, 1), stride=(1, 1))
            (act): ReLU6()
            (fc2): Conv2d(2048, 512, kernel_size=(1, 1), stride=(1, 1))
            (drop): Dropout(p=0.0, inplace=True)
          )
          (norm3): BatchNorm2d(512, eps=1e-05, momentum=0.1, affine=True, track_running_stats=True)
        )
      )
      (7): ModuleList(
        (0): Block(
          (norm1): BatchNorm2d(512, eps=1e-05, momentum=0.1, affine=True, track_running_stats=True)
          (attn): Attention(
            (to_qkv): Conv2d(512, 1536, kernel_size=(1, 1), stride=(1, 1), bias=False)
            (attn_drop): Dropout(p=0.0, inplace=False)
            (proj): Conv2d(512, 512, kernel_size=(1, 1), stride=(1, 1))
            (proj_drop): Dropout(p=0.0, inplace=False)
          )
          (local): Conv2d(512, 512, kernel_size=(7, 7), stride=(1, 1), padding=(3, 3), groups=512)
          (drop_path): DropPath()
          (norm2): BatchNorm2d(512, eps=1e-05, momentum=0.1, affine=True, track_running_stats=True)
          (mlp): Mlp(
            (fc1): Conv2d(512, 2048, kernel_size=(1, 1), stride=(1, 1))
            (act): ReLU6()
            (fc2): Conv2d(2048, 512, kernel_size=(1, 1), stride=(1, 1))
            (drop): Dropout(p=0.0, inplace=True)
          )
          (norm3): BatchNorm2d(512, eps=1e-05, momentum=0.1, affine=True, track_running_stats=True)
        )
        (1): Block(
          (norm1): BatchNorm2d(512, eps=1e-05, momentum=0.1, affine=True, track_running_stats=True)
          (attn): Attention(
            (to_qkv): Conv2d(512, 1536, kernel_size=(1, 1), stride=(1, 1), bias=False)
            (attn_drop): Dropout(p=0.0, inplace=False)
            (proj): Conv2d(512, 512, kernel_size=(1, 1), stride=(1, 1))
            (proj_drop): Dropout(p=0.0, inplace=False)
          )
          (local): Conv2d(512, 512, kernel_size=(7, 7), stride=(1, 1), padding=(3, 3), groups=512)
          (drop_path): DropPath()
          (norm2): BatchNorm2d(512, eps=1e-05, momentum=0.1, affine=True, track_running_stats=True)
          (mlp): Mlp(
            (fc1): Conv2d(512, 2048, kernel_size=(1, 1), stride=(1, 1))
            (act): ReLU6()
            (fc2): Conv2d(2048, 512, kernel_size=(1, 1), stride=(1, 1))
            (drop): Dropout(p=0.0, inplace=True)
          )
          (norm3): BatchNorm2d(512, eps=1e-05, momentum=0.1, affine=True, track_running_stats=True)
        )
      )
      (8): ModuleList(
        (0): Block(
          (norm1): BatchNorm2d(512, eps=1e-05, momentum=0.1, affine=True, track_running_stats=True)
          (attn): Attention(
            (to_qkv): Conv2d(512, 1536, kernel_size=(1, 1), stride=(1, 1), bias=False)
            (attn_drop): Dropout(p=0.0, inplace=False)
            (proj): Conv2d(512, 512, kernel_size=(1, 1), stride=(1, 1))
            (proj_drop): Dropout(p=0.0, inplace=False)
          )
          (local): Conv2d(512, 512, kernel_size=(7, 7), stride=(1, 1), padding=(3, 3), groups=512)
          (drop_path): DropPath()
          (norm2): BatchNorm2d(512, eps=1e-05, momentum=0.1, affine=True, track_running_stats=True)
          (mlp): Mlp(
            (fc1): Conv2d(512, 2048, kernel_size=(1, 1), stride=(1, 1))
            (act): ReLU6()
            (fc2): Conv2d(2048, 512, kernel_size=(1, 1), stride=(1, 1))
            (drop): Dropout(p=0.0, inplace=True)
          )
          (norm3): BatchNorm2d(512, eps=1e-05, momentum=0.1, affine=True, track_running_stats=True)
        )
        (1): Block(
          (norm1): BatchNorm2d(512, eps=1e-05, momentum=0.1, affine=True, track_running_stats=True)
          (attn): Attention(
            (to_qkv): Conv2d(512, 1536, kernel_size=(1, 1), stride=(1, 1), bias=False)
            (attn_drop): Dropout(p=0.0, inplace=False)
            (proj): Conv2d(512, 512, kernel_size=(1, 1), stride=(1, 1))
            (proj_drop): Dropout(p=0.0, inplace=False)
          )
          (local): Conv2d(512, 512, kernel_size=(7, 7), stride=(1, 1), padding=(3, 3), groups=512)
          (drop_path): DropPath()
          (norm2): BatchNorm2d(512, eps=1e-05, momentum=0.1, affine=True, track_running_stats=True)
          (mlp): Mlp(
            (fc1): Conv2d(512, 2048, kernel_size=(1, 1), stride=(1, 1))
            (act): ReLU6()
            (fc2): Conv2d(2048, 512, kernel_size=(1, 1), stride=(1, 1))
            (drop): Dropout(p=0.0, inplace=True)
          )
          (norm3): BatchNorm2d(512, eps=1e-05, momentum=0.1, affine=True, track_running_stats=True)
        )
      )
    )
  )
  (stage4): StageModule(
    (patch_partition): PatchMerging(
      input dim=512, out dim=1024
      (norm): BatchNorm2d(512, eps=1e-05, momentum=0.1, affine=True, track_running_stats=True)
      (reduction): Conv2d(512, 1024, kernel_size=(2, 2), stride=(2, 2), bias=False)
    )
    (layers): ModuleList(
      (0): ModuleList(
        (0): Block(
          (norm1): BatchNorm2d(1024, eps=1e-05, momentum=0.1, affine=True, track_running_stats=True)
          (attn): Attention(
            (to_qkv): Conv2d(1024, 3072, kernel_size=(1, 1), stride=(1, 1), bias=False)
            (attn_drop): Dropout(p=0.0, inplace=False)
            (proj): Conv2d(1024, 1024, kernel_size=(1, 1), stride=(1, 1))
            (proj_drop): Dropout(p=0.0, inplace=False)
          )
          (local): Conv2d(1024, 1024, kernel_size=(7, 7), stride=(1, 1), padding=(3, 3), groups=1024)
          (drop_path): DropPath()
          (norm2): BatchNorm2d(1024, eps=1e-05, momentum=0.1, affine=True, track_running_stats=True)
          (mlp): Mlp(
            (fc1): Conv2d(1024, 4096, kernel_size=(1, 1), stride=(1, 1))
            (act): ReLU6()
            (fc2): Conv2d(4096, 1024, kernel_size=(1, 1), stride=(1, 1))
            (drop): Dropout(p=0.0, inplace=True)
          )
          (norm3): BatchNorm2d(1024, eps=1e-05, momentum=0.1, affine=True, track_running_stats=True)
        )
        (1): Block(
          (norm1): BatchNorm2d(1024, eps=1e-05, momentum=0.1, affine=True, track_running_stats=True)
          (attn): Attention(
            (to_qkv): Conv2d(1024, 3072, kernel_size=(1, 1), stride=(1, 1), bias=False)
            (attn_drop): Dropout(p=0.0, inplace=False)
            (proj): Conv2d(1024, 1024, kernel_size=(1, 1), stride=(1, 1))
            (proj_drop): Dropout(p=0.0, inplace=False)
          )
          (local): Conv2d(1024, 1024, kernel_size=(7, 7), stride=(1, 1), padding=(3, 3), groups=1024)
          (drop_path): DropPath()
          (norm2): BatchNorm2d(1024, eps=1e-05, momentum=0.1, affine=True, track_running_stats=True)
          (mlp): Mlp(
            (fc1): Conv2d(1024, 4096, kernel_size=(1, 1), stride=(1, 1))
            (act): ReLU6()
            (fc2): Conv2d(4096, 1024, kernel_size=(1, 1), stride=(1, 1))
            (drop): Dropout(p=0.0, inplace=True)
          )
          (norm3): BatchNorm2d(1024, eps=1e-05, momentum=0.1, affine=True, track_running_stats=True)
        )
      )
    )
  )
  (avgpool): AdaptiveAvgPool2d(output_size=(1, 1))
  (head): Linear(in_features=1024, out_features=1000, bias=True)
)
[2021-06-24 16:15:28 shuffle_vit_base_patch4_window7_224_local7midV2] (main.py 91): INFO number of params: 88398560
[2021-06-24 16:15:28 shuffle_vit_base_patch4_window7_224_local7midV2] (main.py 118): INFO no checkpoint found in output/shuffle_vit_base_patch4_window7_224_local7midV2/default, ignoring auto resume
[2021-06-24 16:15:28 shuffle_vit_base_patch4_window7_224_local7midV2] (utils.py 20): INFO ==============> Resuming form ../pretrained_models/shuffle_vit_base_patch4_window7_224_local7midV2_83.98/ckpt_epoch_296.pth....................
…
